clasicmodel.pt (torch, 17091 bytes, 8 tensors)

conv1.weight f4 [16, 1, 5]
000000 23 4c c8 3e bc aa ce 3e 78 0c 4f bd cf f4 66 3e
       0.39120588 0.40364635 -0.050549 0.22554325
000010 69 ab 87 3e 50 8a b3 be 27 99 5b be fa cd c8 3e
       0.26497963 -0.35066462 -0.21445142 0.39219648
000020 92 a2 bb be 40 44 a8 3d a6 9e 41 be 3e fd e0 3c
       -0.3664747 0.08216143 -0.18908176 0.027464505
000030 4e 29 a5 3d c4 21 e5 3e ad d5 b2 3e 1d e7 f3 3e
       0.08064519 0.44752324 0.34928647 0.47637263
000040 63 1e 00 3f 60 a2 89 3e 08 62 07 3f c7 c2 c2 3e
       0.50046366 0.26881695 0.5288396 0.38039228
000050 2a a7 c4 be 00 98 89 bd a7 be d2 be 30 e3 cb 3d
       -0.38408786 -0.06718445 -0.4116108 0.09955442
000060 7e a6 e3 be ea ee 80 3e c8 9b 3e be 10 50 d8 be
       -0.4446296 0.25182277 -0.18614113 -0.42248583
000070 d8 2f 0d 3e 80 0f 8b 3b 81 0e d4 be 11 9d c2 be
       0.13787782 0.004243791 -0.41417316 -0.38010457
000080 2d 6f 09 3d 26 79 a9 bd f0 b6 55 be e8 d5 f0 bd
       0.03355329 -0.0827506 -0.20870566 -0.117595494
000090 e0 31 f4 3d 0d 96 c9 be 5f 5f 7d be 0c 5e 49 be
       0.119235754 -0.39372292 -0.24743412 -0.19664782
0000a0 38 f9 fc bd d4 29 cc bd b0 4d 8c 3d d0 e1 5a 3e
       -0.12352222 -0.099689156 0.06850755 0.21375203
0000b0 a8 d4 ae 3d a0 fb 38 bc 30 e7 83 bc ed b6 67 be
       0.08536655 -0.011290461 -0.01610145 -0.22628374
0000c0 97 09 a2 be 68 47 d1 be 2c c6 0d bd 8a fa e3 3e
       -0.3164794 -0.4087479 -0.03461282 0.44527084
0000d0 db 37 3a be 58 dc 42 3c 1d fa 0b 3f b8 76 f9 bd
       -0.1818537 0.011893354 0.5467852 -0.12180847
0000e0 0a de 01 be 60 1b c4 3e 5c a1 a2 3e cd 51 83 be
       -0.12682357 0.38302135 0.31763732 -0.25648347
0000f0 76 26 bc be c2 44 9a 3e 72 24 85 be 6d aa 92 be
       -0.36748093 0.30130583 -0.26004368 -0.2864565
000100 de e8 53 be 9c 67 5e 3e 6a 6c 88 be 03 87 24 bf
       -0.206943 0.21719211 -0.26645213 -0.6426851
000110 06 50 48 3e df 94 3a 3e 9c 51 77 be 4f 85 cc 3e
       0.19561777 0.18220852 -0.24152225 0.39945456
000120 b6 00 40 3d 09 39 93 3e f9 2e 99 3e c4 f3 42 be
       0.046875678 0.28754452 0.2991865 -0.19038302
000130 db e9 97 be cb d8 c2 be 6e d9 a4 3e bf df da be
       -0.29670605 -0.38056025 0.32197136 -0.4274883

conv1.bias f4 [16]
000000 49 3e aa be f0 b2 97 bc 92 c1 6f be 12 c7 a2 be
       -0.33250645 -0.018517941 -0.23413685 -0.31792504
000010 d6 1c 8f be 26 48 13 be d0 d8 6f 3e e6 95 ba be
       -0.27951688 -0.14382991 0.23422551 -0.36442488
000020 4a 6a ae be e0 d9 b3 bc 03 bb 71 be c9 54 db be
       -0.34065467 -0.021954477 -0.23606496 -0.42838123
000030 cc d7 49 be d2 ed 58 3d 7f dd 0b be f6 da 86 be
       -0.19711226 0.052961178 -0.13658713 -0.2633893

conv2.weight f4 [1, 16, 5]
000000 e8 84 01 3e cf d4 a3 3e 39 ab aa 3e ed 76 de 3e
       0.12648356 0.31998298 0.33333758 0.43450108
000010 80 42 d3 3e 08 21 c2 bd d0 87 26 3d 58 61 b5 bd
       0.41261673 -0.094789565 0.040656865 -0.088564575
000020 60 fe 52 3d 60 ea f4 3c 81 6a 5b 3e bc 04 ac 3e
       0.051512122 0.029896915 0.21427347 0.33597362
000030 b8 d2 12 3f ac 9e f2 3e ad 51 fa 3e e8 79 f8 bd
       0.5735278 0.47386682 0.4889044 -0.12132627
000040 04 50 83 3b 58 0f 0c 3e 73 5b 83 3e 06 fb 9c 3e
       0.0040073413 0.13677728 0.25655708 0.30660266
000050 f0 15 a5 bb be b5 d9 bd 2d e6 da bd a2 ce 94 3d
       -0.0050380155 -0.10630368 -0.10688434 0.072659746
000060 58 4b 25 3c 32 65 88 3d fe db ba bd d6 36 c1 3d
       0.010088764 0.066599265 -0.091239914 0.09434287
000070 8c 1e e2 3d 24 1c 74 3d 6e 10 c5 3d 87 de b8 bc
       0.110409826 0.05959715 0.09622274 -0.022567047
000080 fe 21 92 bd c2 31 cf bd ed df 7a bc 00 2d 34 bc
       -0.0713539 -0.101169124 -0.015312177 -0.010997057
000090 6c 88 02 3d 0e a1 80 3d f8 bb 4f 3c 48 a5 c3 bd
       0.031868383 0.06280719 0.012679093 -0.09553009
0000a0 44 92 79 3d ae a0 89 3d 20 e4 c4 3c b3 41 c7 bd
       0.060930505 0.067201 0.02403456 -0.09729328
0000b0 6c b5 e3 3d 08 2e 15 bc 1e 06 89 3d dd b8 c5 bd
       0.11118588 -0.009105213 0.0669062 -0.096544005
0000c0 ee a9 ca 3d 52 b2 99 bd 77 99 09 3d cc 20 85 3e
       0.09895693 -0.07504715 0.03359362 0.26001585
0000d0 41 67 a3 3e 89 40 da 3e a3 bc 09 3f 50 7e fe 3b
       0.31914714 0.4262736 0.5380346 0.0077665225
0000e0 a8 93 01 3d 20 c3 3b bc e4 42 22 bd 7a c2 80 bd
       0.031634957 -0.011460096 -0.039614573 -0.062870935
0000f0 ac c8 1b 3d f8 74 a4 3c b0 b6 9f 3c f6 88 31 bd
       0.038033172 0.020075306 0.019496292 -0.043343507
000100 80 57 47 bb 29 27 32 3d f7 c6 d2 bd 5e 38 9e bc
       -0.0030417144 0.043494377 -0.10291856 -0.019313987
000110 04 0e 4b 3d 27 70 c3 bd 8b 24 0a 3d 84 33 50 3e
       0.049573913 -0.09542876 0.033726256 0.20332152
000120 37 07 a1 3e 22 54 d6 3e c6 08 e1 3e be 8c 95 3d
       0.31450817 0.41861063 0.43952006 0.07302235
000130 78 0a 13 bc 84 b5 86 bd 5c 34 71 3d 84 ea b9 bc
       -0.008974664 -0.0657759 0.058887824 -0.022694834

fc1.weight f4 [64, 42]
000000 3c a6 7a be 45 fd 87 be f1 6e 7a 3c 4a 88 19 be
       -0.24477476 -0.26560417 0.01528524 -0.14993396
000010 d3 50 3e bd 5c b1 83 bd fe 70 d1 bd 8d 38 1a bc
       -0.0464638 -0.06430313 -0.1022663 -0.009412897
000020 61 f8 30 bd e9 3e 47 be c6 56 bd 3d b2 dd cd 3d
       -0.043205623 -0.19457592 0.09245066 0.10052051
000030 0a 73 29 3e 7b 9e 85 bd ae c4 c1 3d 34 6f 31 3e
       0.1654779 -0.065243684 0.09461342 0.17327577
000040 02 d6 86 3e 3d e5 17 3e b9 f3 54 3e f9 64 21 3e
       0.2633515 0.14833541 0.20796098 0.15761174
000050 3d 0f 83 3e dc ca 62 3e 32 63 f0 3d 86 c1 76 3e
       0.25597563 0.22147697 0.1173767 0.24097261
000060 74 d3 13 3e ee d3 5a 3e b0 58 27 3d f5 04 0f be
       0.14436132 0.21369907 0.040856063 -0.13966735
000070 62 79 05 3e e0 9a 1e 3d 92 70 24 be e7 64 f3 bd
       0.13034585 0.03872192 -0.16058567 -0.1188448
000080 2d 9c fe bd ab 55 9a bd 52 9e 0f bb 62 cf 13 be
       -0.12432132 -0.07535871 -0.0021914435 -0.14434579
000090 cc 80 3b bd 6b 76 4f be da 3b c1 bd 2f 45 0a 3d
       -0.045777127 -0.20260017 -0.09435244 0.033757385
0000a0 4f bd a1 bb 54 f2 37 be 27 13 bf 3c 7f 95 14 3e
       -0.0049358974 -0.17963535 0.023324562 0.14510153
0000b0 05 8c 67 3e 7f 2a 83 bb 67 7b 89 3e 3e 7f 76 3d
       0.22612007 -0.0040028687 0.2685196 0.06017994
0000c0 0a d6 ee 3d 97 a6 3a 3e 89 62 54 3e d6 c2 3d 3e
       0.116619185 0.18227611 0.20740713 0.18531355
0000d0 23 4e 95 3d 5e 2e ce bc 28 7d 83 3d c4 a5 06 be
       0.07290294 -0.025168594 0.06420356 -0.13149172
0000e0 77 bc 8e bb 53 32 eb bd de ae 25 bd a4 2c 27 be
       -0.004355963 -0.11484208 -0.04044997 -0.16325623
0000f0 cf 53 d3 bd 9c a0 98 be c4 bb 5d be 7b 0a 5d be
       -0.103187196 -0.29810035 -0.21653658 -0.21586029
000100 50 d8 2a be e7 0e 08 be 49 0e 65 3d b4 dd 9a 3d
       -0.16684079 -0.13286935 0.055921827 0.07561818
000110 3d 45 8b bd 01 91 ca 3d 3b 86 85 3d 8c fa 30 3e
       -0.068003155 0.098909386 0.06519743 0.17283076
000120 20 e8 82 3b 71 7a ba 3d a0 69 d7 3d b0 a9 d3 3d
       0.0039949566 0.09105385 0.10518193 0.103351
000130 02 f6 2e 3e 1a 9d 1c 3e 1b 3f 89 3e fa 17 65 3c
       0.17086032 0.15294304 0.26805958 0.013982767
000140 f2 9c 5f bc 79 32 8b 3d 18 26 7c 3e 3e ac 4e 3c
       -0.0136482585 0.06796736 0.24623907 0.012614308
000150 76 ec 18 be 47 f9 75 be 47 07 82 bd 90 56 5f be
       -0.14933953 -0.24020873 -0.06349044 -0.21810365
000160 32 b1 27 be 11 90 9d bc 4d 61 15 bd 38 cc b9 3b
       -0.16376188 -0.019233735 -0.036469746 0.0056700967
000170 9b 90 21 3d b6 e0 37 3c 1e f5 e8 bb e9 14 eb 3d
       0.039444547 0.011223009 -0.0071092984 0.11478598
000180 97 83 a2 3d c8 7d 47 3e ba 34 c5 3c c2 70 b7 3d
       0.07935255 0.19481575 0.024072994 0.08957054
000190 36 4f 94 3e 9b 36 14 3e 26 29 e8 3d dd b6 d9 3d
       0.28966683 0.14473955 0.113359734 0.106305815
0001a0 92 a5 82 3e 8b 5b 0b 3e e7 ee 59 3e c1 a6 4e 3e
       0.25516945 0.1360914 0.2128254 0.20180799
0001b0 91 bf 8c bd 72 2a b8 3d 59 e5 e1 bc b3 a6 3a 3d
       -0.06872476 0.08992471 -0.027575182 0.045569133
0001c0 a0 13 d3 3d 7d 57 13 3d e9 98 e1 bb 42 00 0b 3d
       0.103064775 0.035972107 -0.0068846834 0.033935793
0001d0 6d 20 29 be 53 40 b5 bd 5c 6d c1 bd 53 8b 04 be
       -0.16516276 -0.088501595 -0.09444687 -0.12943773
0001e0 33 71 8c bb 25 85 98 be b4 a8 01 bd 7f 7c 37 be
       -0.0042859553 -0.2978908 -0.03165503 -0.17918585
0001f0 8e 2b 82 be b0 7e 87 3b 0d 4b 9b 3d b6 14 a3 3d
       -0.25423855 0.0041349754 0.07582674 0.07962935
000200 71 6d 68 3e 13 7c 11 3e 4e 01 83 3e 45 cc 89 3e
       0.22697999 0.14207487 0.25586933 0.26913658
000210 36 94 8a 3e e0 73 be bc 88 00 08 bd 2b 34 60 3e
       0.270662 -0.023248613 -0.03320363 0.218949
000220 8b d2 9b 3c f9 ac ec 3d 44 c7 73 3d a1 30 09 3d
       0.019021293 0.115564294 0.059516206 0.03349364
000230 8a 0d aa 3d 4d ed 1a be ea 68 07 be 67 28 32 3d
       0.083033636 -0.15129586 -0.13223615 0.043495562
000240 16 ee 76 be 90 86 13 be 60 d6 41 be c9 fc ab ba
       -0.2411426 -0.144068 -0.18929434 -0.00131216
000250 09 b0 2d 3c e3 3c e6 bc 59 d0 80 bd 1c 2a 5d be
       0.010601052 -0.028105205 -0.06289739 -0.21598095
000260 34 7e 5b bc 42 f7 14 be 56 78 0f bb 38 4e 0d 3e
       -0.013396788 -0.14547446 -0.0021891794 0.1379937
000270 cf 7a f3 3d 56 16 17 3e 0f 1d 58 3e 55 48 21 3e
       0.11888658 0.14754614 0.21104835 0.15750249
000280 9c aa 9d bc 00 7c 77 3e df b2 28 3e 4b 27 4c 3e
       -0.019246392 0.24168396 0.16474484 0.19936864
000290 f4 98 8e 3d 83 17 da 3d f7 53 ce bc c2 15 11 bd
       0.06962767 0.10649016 -0.025186522 -0.03542114
0002a0 b7 ef da bd ee 07 f9 3d 80 d8 b6 bb 00 25 88 bd
       -0.10690253 0.121597156 -0.005580008 -0.06647682
0002b0 48 d5 bb 3d 30 90 d6 3c fe db f6 bd 68 c5 88 3d
       0.091715395 0.0261918 -0.12053679 0.06678277
0002c0 49 db 12 3e 86 5f fc 3d 02 a9 d2 3d a8 bb dc bd
       0.14341463 0.12322907 0.10286142 -0.1077798
0002d0 f2 6b f3 3d 68 e9 f3 bc ec ba 94 bd 2a fc 15 be
       0.11885823 -0.029774383 -0.07262215 -0.14646974
0002e0 b1 de 83 bd 84 b3 d2 bd 6a cd e8 bd d3 a0 1b be
       -0.064389594 -0.10288146 -0.113673046 -0.15198068
0002f0 58 ad a6 bd da 4b e4 bd 28 3e 2d 3d 00 cd 41 3d
       -0.081385314 -0.1114728 0.042295605 0.047314644
000300 3a f0 22 bd 1a 0a 48 bd 83 62 12 3e 60 92 02 3c
       -0.03977988 -0.04883776 0.14295392 0.007969469
000310 40 9f 52 3d 76 80 d4 3d 72 8c 15 be 96 d7 f6 3d
       0.051421404 0.103760645 -0.14604357 0.120528385
000320 b0 77 e6 3c e8 93 c1 3c e0 d2 79 bc 5a a9 78 bd
       0.028133243 0.023630098 -0.01524803 -0.06070838
000330 32 32 0b be ef 40 19 be 80 87 73 bb b4 b9 3b 3d
       -0.13593367 -0.14966176 -0.0037159622 0.045831397
000340 eb f0 e4 bd 8a 68 15 be 31 cf d4 bd 00 d3 dc 3c
       -0.11178764 -0.1459066 -0.10391081 0.026956081
000350 40 af 02 bb 71 7f 13 3e 78 bf 9e bc a0 60 ca bc
       -0.0019940883 0.14404084 -0.019378409 -0.024704278
000360 71 b7 19 3e 86 71 d1 bd 45 05 0e be 20 63 6b 3d
       0.15011384 -0.10226731 -0.13869198 0.05746758
000370 30 0b ff bd fe b0 ec 3d 77 60 eb bd f8 00 2c bd
       -0.12453306 0.11557196 -0.114930086 -0.04199311
000380 14 f9 21 3d 4e 82 88 bd f8 18 b7 3c d6 80 2f bd
       0.03954418 -0.06665479 0.022350773 -0.042847477
000390 7d 56 e5 bd 5d 2b 14 3e b8 a4 7a bd 40 0f 93 bd
       -0.11198137 0.14469667 -0.061192244 -0.07180643
0003a0 f0 7b 12 bd f4 0d 67 bd 9d 1f 0e 3e 29 9d 94 bd
       -0.035762727 -0.05640979 0.13879247 -0.072565384
0003b0 a6 94 05 be f3 b4 cd bd 8f e7 b5 bd d0 ee 55 3c
       -0.13044986 -0.10044279 -0.08882057 0.013057426
0003c0 fc 33 62 3d a7 f5 05 3e 58 89 3a 3d 2a 29 15 bd
       0.055225357 0.1308199 0.045541137 -0.03641621
0003d0 1b ad 17 3e a0 20 d5 bb 15 5f 03 3e a0 40 0a 3c
       0.14812128 -0.0065041333 0.1282924 0.008438259
0003e0 20 74 9d 3d bc 2c d0 bd e4 30 43 3d 36 41 e7 bd
       0.07688165 -0.101647824 0.047654048 -0.11291735
0003f0 a2 1f ea 3d 8a 7d 4c 3d 16 6c 3f 3b 08 e0 ed 3d
       0.11431815 0.04992441 0.0029208711 0.11614996

fc1.bias f4 [64]
000000 a0 a1 35 be 7f 56 d4 3e 08 18 0c be ed ce 37 bc
       -0.17737436 0.4147224 -0.13681042 -0.011218769
000010 7f 6e 9c bd bf b9 b2 bb 08 a4 3e 3e df e2 39 be
       -0.07638263 -0.0054542716 0.1861726 -0.1815295
000020 57 69 91 3e 7b 61 42 be 48 fa 02 bc aa 8f a5 3e
       0.2840068 -0.18982498 -0.007994242 0.3233617
000030 4a 20 bb bd 8f e0 12 be 8f 49 18 bb 02 55 b5 3e
       -0.09137018 -0.14343475 -0.0023237204 0.35416418
000040 3e 6a a0 bd 57 cc cd 3e 90 ad b4 3e 94 cd ec b8
       -0.07832764 0.4019496 0.35288668 -0.00011291649
000050 92 6f e4 bb 0c a4 03 be d8 55 17 be 2e 0e ec bd
       -0.006971308 -0.12855548 -0.1477884 -0.11526142
000060 9d f6 14 be 55 5f 0d be 83 d3 ca bd 10 42 3b 38
       -0.145472 -0.13805898 -0.09903624 4.46458e-05
000070 c3 56 0d be 41 1e 9e bc 73 57 4d bb c6 7d 02 be
       -0.13802628 -0.019301536 -0.0031332641 -0.12743291
000080 f1 15 4b be b5 75 fd bd c5 73 9b 3e 64 ba c4 3e
       -0.19832589 -0.123759665 0.30361763 0.38423455
000090 4f 04 8b 3e 1c e9 f2 bd 69 42 0d be 97 56 b9 bd
       0.27151725 -0.11860868 -0.13794865 -0.09049719
0000a0 d6 d8 59 be 5d 1b a0 3e 5c 5c 32 be 50 6f bd 3e
       -0.21274123 0.31270877 -0.17418045 0.36998987
0000b0 f6 21 84 3e 3d c5 94 3e 92 2f 04 be 0d 1a 99 3e
       0.2580716 0.2905673 -0.12908772 0.29902688
0000c0 7b cc ba 3e c7 3b 90 3e 26 7e 38 be 27 ee 06 be
       0.3648413 0.28170606 -0.18016872 -0.13176785
0000d0 aa 5e 4d ba 83 0e 3e 3e 8f 82 0a be ae 37 99 bd
       -0.00078342354 0.18560223 -0.13526367 -0.07481323
0000e0 c4 45 b6 37 94 ea d8 3e fc 9e f5 bd eb e5 52 be
       2.1728578e-05 0.4236647 -0.119932145 -0.20595519
0000f0 67 9f 08 be 1d a6 db b9 d6 f1 e6 bd ac 09 fd bc
       -0.13342057 -0.000418947 -0.11276595 -0.030888401

fc2.weight f4 [8, 64]
000000 be d0 5e 3d a3 f0 84 be ec 91 74 3d 4b d5 9a bd
       0.05439829 -0.2596484 0.059709474 -0.07560214
000010 52 22 c2 3d 8e 84 9e 3d 0a 89 0f be 4f 2e e6 3d
       0.09479202 0.077401266 -0.1401712 0.112393014
000020 e2 f4 8b be 12 73 59 3e 0d 22 22 3b c5 4a 6b be
       -0.27335268 0.21235302 0.0024739534 -0.22977741
000030 d8 ec 36 bd 98 89 d3 bd 31 2a 95 3d 2f dc e9 be
       -0.044659466 -0.10328978 0.07283438 -0.456758
000040 86 ff c8 bb 6e f4 a2 be 32 08 b0 be 2b 1c 1e 3d
       -0.0061339764 -0.3182711 -0.34381253 0.03860108
000050 82 e9 83 bc 10 b1 02 3e 58 a2 23 3d 24 db a0 3e
       -0.016102556 0.12762856 0.039949745 0.3141719
000060 ae 8f ba 3a 38 9e b2 3d 1f d1 a0 bc 05 20 d2 3d
       0.0014233494 0.08721584 -0.019630967 0.102600135
000070 3e 4b c6 bd 1d da 2f bc f3 d2 bf bd 20 61 98 bc
       -0.0968232 -0.010733155 -0.09366407 -0.018601
000080 41 6e 73 3e 5a cb 48 3e 67 f2 06 be 29 2c 99 be
       0.23772527 0.19608822 -0.13178407 -0.29916504
000090 b6 d6 b7 be 28 8a d1 bd 7d 3f b2 bb 64 a3 de ba
       -0.35906 -0.10231429 -0.0054396973 -0.001698595
0000a0 7f 70 29 3e 42 82 d3 be 2e db 31 3e f3 18 96 be
       0.1654682 -0.41310316 0.17368767 -0.2931591
0000b0 24 18 1b be 00 5a 83 be 95 e4 8f 3e 34 79 45 be
       -0.15145928 -0.25654602 0.28104082 -0.19284517
0000c0 de 7c c2 be ce fe 1d be fb 9b 88 3e b0 65 53 3d
       -0.3798589 -0.15429232 0.26681504 0.05161065
0000d0 bf 5e d7 3c e1 66 4b be 62 ad f6 3d fc bc 60 bd
       0.026290296 -0.19863464 0.12044789 -0.05486773
0000e0 1e 9c 59 3d fa de a3 be 0b 36 1f 3e f2 04 1c 3e
       0.0531274 -0.32006055 0.1554796 0.15236261
0000f0 68 35 f5 3d 8d fe 32 bd b8 0d 99 bd ee 93 4a 3d
       0.11973077 -0.04369979 -0.0747332 0.049457483
000100 00 7a 6a 3e fd 94 c9 be 7e 71 57 3e 28 fe ab bd
       0.22898102 -0.39371482 0.21039388 -0.08398086
000110 58 45 3c bd 82 bb c8 3b d6 8e 1a be e9 6f ce 3d
       -0.04596457 0.0061258683 -0.1509355 0.10079939
000120 50 51 74 be 8f 17 81 3e 3c aa 29 be a3 0c e3 be
       -0.23859143 0.25213286 -0.16568846 -0.4434558
000130 50 e9 71 bd a0 60 c1 3c af 84 85 3c 97 70 f8 be
       -0.059060395 0.023605645 0.01629862 -0.485234
000140 e7 75 a3 bd b9 1d ae be ed fa 72 be cf 9a 84 bd
       -0.079814725 -0.34007052 -0.23728533 -0.0647484
000150 4b 72 d0 3c d4 9b 10 3e 38 d3 89 3d 55 49 89 3e
       0.025445124 0.14121944 0.0672974 0.2681376
000160 c0 ff ab bc 00 bb 76 bc f4 f7 98 3d 1c a8 73 bc
       -0.020995975 -0.015059233 0.07469168 -0.014871623
000170 c0 a0 ba bb 86 63 91 3c 56 c3 cd ba b0 c4 19 3c
       -0.0056954324 0.017747652 -0.0015698473 0.009385273
000180 65 51 e6 3d ec ba d7 bc 24 90 4d be 90 7e c8 be
       0.112459935 -0.026334248 -0.20074517 -0.3915906
000190 28 ac 9b be 90 fd c8 3d 13 11 da 3d c0 07 b0 3d
       -0.30404782 0.09813988 0.10647788 0.08595228
0001a0 c9 91 10 3e 72 1c 9c be ba 72 89 3e f1 57 a7 be
       0.14118113 -0.30490452 0.26845342 -0.3268428
0001b0 c6 87 f4 bd e2 f5 90 be b9 0b 9a 3e 6b 37 a1 be
       -0.11939959 -0.28312594 0.3008707 -0.31487593
0001c0 27 b8 bd be f2 ed 90 be 0e f9 89 3e f8 d1 7e 3d
       -0.3705456 -0.28306538 0.26947826 0.06221196
0001d0 a8 c3 74 bc be 0e 9c be 64 02 30 3e 3b 02 7c 3d
       -0.014939226 -0.30479997 0.17188412 0.061525565
0001e0 a5 c9 b4 bd 4d 7d c0 be a0 05 16 3e b3 63 93 3e
       -0.08827523 -0.37595597 0.14650583 0.28787002
0001f0 19 4b 98 bc 06 22 10 bd f1 20 c5 bd c8 01 82 bd
       -0.018590497 -0.035188697 -0.09625424 -0.06347996
000200 5b c1 3c 3e fc d2 d1 be 7e f3 5a 3e ad 1f 02 be
       0.18433134 -0.4098128 0.21381947 -0.12707396
000210 c0 98 bc 3c 2b a6 33 3c fc f9 95 be e9 82 24 3e
       0.023022056 0.0109649105 -0.29292285 0.16065563
000220 3d 8d b0 be f7 19 6a 3e 5d 2e 29 bd 7b f3 e8 be
       -0.34482756 0.22861467 -0.04130398 -0.4549826
000230 a8 df de bc 04 cf e3 3d e1 ef f1 bc 26 45 7e be
       -0.027206257 0.111234695 -0.029533328 -0.24831066
000240 67 e6 d5 3d 90 ee 84 be 6e 3a 99 be 0a be 8d bd
       0.104443364 -0.2596326 -0.2992739 -0.06921013
000250 54 c7 2c 3d bc 57 a4 3d 80 cc 84 ba a8 69 b1 3e
       0.04218228 0.080245465 -0.0010131747 0.34650922
000260 fb 8e 7d bd 0e b6 f1 3d 18 7e 6d 3b 28 e7 87 bd
       -0.061903935 0.11802302 0.0036238488 -0.066358864
000270 64 82 d5 3d cc 08 04 3e 18 67 68 bd 2a 18 cf 3d
       0.10425261 0.1289398 -0.056738943 0.10112031
000280 1f 5c 7b 3e fe ed 13 3e dc 9b a7 be 48 47 b4 be
       0.2454686 0.14446256 -0.327361 -0.35210633
000290 ef a0 b1 be 63 5a 35 3d 13 b2 b8 bd df 02 ed bd
       -0.34693095 0.044275653 -0.0901834 -0.11572813
0002a0 35 2b 57 3e b0 79 e7 be 05 96 9f 3e dc 3d a2 be
       0.21012576 -0.45210028 0.31169143 -0.3168782
0002b0 88 a4 a0 be 3f 01 ae bd 77 6c a2 3e 8d 3a 69 be
       -0.31375527 -0.084963314 0.31723377 -0.22776242
0002c0 07 a9 da be 90 79 1b be f5 42 45 3e 20 b3 37 3d
       -0.42707083 -0.15183091 0.19263823 0.04484856
0002d0 1c 60 9c bd 85 1c a3 be 75 ef 2f 3e 2d ca a8 bc
       -0.07635519 -0.31857696 0.1718119 -0.020604217
0002e0 8f 8a 18 bd 79 1f c8 be 04 98 f7 3c ff ba 27 3e
       -0.037241515 -0.39086512 0.030223854 0.16379927
0002f0 e6 55 d7 3d bd a0 4f bd fc 67 b8 bd dc 72 89 bd
       0.10514431 -0.0506904 -0.090042084 -0.06711361
000300 b8 b9 2c 3e b4 dc 82 be db b1 51 3c 88 16 c7 bd
       0.16867721 -0.25559008 0.012798752 -0.09721094
000310 c0 c7 df bc c1 16 ca 3d 95 94 a1 be e5 89 ac 3d
       -0.027316928 0.09867621 -0.31558672 0.08424739
000320 5f 73 88 be 0b 4f 62 3e c5 14 ca 3c 22 60 9b be
       -0.2665052 0.22100465 0.024668107 -0.3034678
000330 48 f9 c3 3c 42 f6 81 3d 75 54 7a bd 3e ab bc be
       0.023922578 0.06345798 -0.0611157 -0.36849397
000340 56 79 88 bd 68 6c ba be d4 96 91 be 98 2d c6 3d
       -0.06663768 -0.36410832 -0.28435385 0.09676665
000350 ed 98 67 bd 6c c7 44 3d 30 5f 0f 3d b0 08 fa 3d
       -0.056542326 0.048041746 0.035002887 0.12208688
000360 db c6 9c bd 64 80 7e 3d 2c 18 b8 3d d5 c3 99 3d
       -0.07655116 0.06213416 0.089889854 0.07508055
000370 16 14 98 3d e6 35 09 3e 30 07 ee 3d fc 6c 73 3d
       0.07425706 0.13399467 0.11622465 0.059430107
000380 ae 09 92 3e dd 17 5f 3e 97 da 9f be fd 80 42 be
       0.2852301 0.21786447 -0.31221458 -0.18994518
000390 f2 13 8a be e9 3b 49 3d 5a bb 09 3d 18 1c 9c 3d
       -0.26968342 0.0491294 0.033625938 0.07622546
0003a0 36 24 5b 3e 9c 37 bb be 70 ab 56 3e 58 5a 87 be
       0.21400532 -0.36565864 0.20963836 -0.26436114
0003b0 21 fa 3a be df cf 63 be eb 45 1d 3e 32 4f 7e be
       -0.18259479 -0.22247265 0.15358703 -0.24834898
0003c0 c2 7d c2 be 45 62 8d be df 59 57 3e 00 b4 e1 bd
       -0.3798657 -0.27614036 0.21030377 -0.110206604
0003d0 1f f7 3c bd a3 81 8d be 12 5a 20 3e 6e 9d e1 3d
       -0.04613411 -0.27637967 0.15659359 0.110163555
0003e0 ac 23 2f bb fb 73 7d be 9d cb 8f 3d 16 ad ed 3d
       -0.0026724143 -0.24751274 0.07021258 0.11605279
0003f0 c5 db 88 bd 7e 53 8f bc c0 dc ab 3d 4b a0 84 bd
       -0.06682543 -0.017495867 0.08391714 -0.06475886

fc2.bias f4 [8]
000000 c4 a9 5d be 31 1e 14 be 24 f3 ae be 93 a9 9f be
       -0.21646792 -0.14464642 -0.34169877 -0.31184062
000010 6d 72 9e be 29 a4 70 3e 25 24 89 be ce 19 84 be
       -0.30946675 0.23500122 -0.2678539 -0.25800937

fc3.weight f4 [1, 8]
000000 74 e3 0c bf 08 50 34 bf bd 64 29 bf fe f4 19 bf
       -0.55034566 -0.7043462 -0.6616934 -0.60139453
000010 a8 ee 14 bf e2 75 23 3f 2a ad f3 be 93 9e e0 be
       -0.5817666 0.6385175 -0.4759305 -0.43870983
