hybridcqmodel.pt (torch, 18008 bytes, 11 tensors)

conv1.weight f4 [16, 1, 5]
0	0xbee596b9	-0.44841555
1	0x3e86fea1	0.2636614
2	0xbcedaa14	-0.029011764
3	0xbea58e89	-0.32335308
4	0xbd18cb4c	-0.037303254
5	0xbe87bd9a	-0.26511842
6	0xbd364bd0	-0.044505894
7	0xbdd1f37e	-0.102515206
8	0x3e2b2980	0.1671505
9	0xbf051999	-0.51992184
10	0x3e73f74b	0.23824804
11	0x3e89eece	0.26940006
12	0xbe84b0d2	-0.25916153
13	0x3e2d13a9	0.16902031
14	0xbe8b8834	-0.27252352
15	0xbe84c579	-0.2593191
16	0xbe05021f	-0.1298909
17	0x3e7a5e89	0.24450125
18	0x3e391957	0.18076073
19	0xbe38bfc8	-0.18041909
20	0xbe2247a4	-0.15847641
21	0x3ddf9bc8	0.10918385
22	0x3e21740c	0.15766925
23	0xbee2e5e7	-0.44316027
24	0x3e28b3f8	0.16474903
25	0x3d7cd2e0	0.061724544
26	0x3ee3e5fa	0.44511396
27	0xbecad55b	-0.39615902
28	0x3d0581e8	0.03259459
29	0x3e41165c	0.18856186
30	0xbe548bee	-0.20756504
31	0x3e0dec09	0.13859572
32	0x3ea678a2	0.3251391
33	0xbeca385b	-0.3949612
34	0x3dfffc98	0.1249935
35	0xbe8a6063	-0.27026662
36	0x3e3d6b76	0.18498024
37	0x3dae199e	0.0850098
38	0x3ec9e98f	0.39436004
39	0xbc858070	-0.016296595
40	0x3d014220	0.031557202
41	0xbcdcdb50	-0.026960045
42	0xbed9db81	-0.4255028
43	0xbdf01fb0	-0.11724794
44	0xbc10b7e0	-0.008832902
45	0xbe100d92	-0.14067677
46	0xbea18513	-0.3154684
47	0x3eb7b388	0.3587916
48	0x3e4dd664	0.20101315
49	0xbdd82864	-0.10554579
50	0x3da2265b	0.07917472
51	0xbe9423c0	-0.28933525
52	0xbe8a06df	-0.26958367
53	0x3c6c00a5	0.014404451
54	0xbc677c05	-0.01412869
55	0xbeedf9ad	-0.4647955
56	0xbea6ae2a	-0.32554752
57	0x3c148f63	0.009067389
58	0xbdaea1d5	-0.08526961
59	0xbdd83728	-0.10557395
60	0xbd8c3dc7	-0.068477206
61	0xbe00f0bb	-0.12591831
62	0x3e4078de	0.18796107
63	0xbef12afb	-0.47103104
64	0x3e607ba4	0.21922165
65	0xbc0dac26	-0.008647
66	0x3ec99d16	0.3937766
67	0x3e916c5a	0.28402978
68	0x3e169d24	0.14708382
69	0x3e8680c6	0.2627012
70	0x3eb07230	0.34462118
71	0x3d804e88	0.06264979
72	0xbeabf8d8	-0.3358829
73	0x3df14518	0.11780757
74	0xbecb0386	-0.39651126
75	0xbed5fa35	-0.41792455
76	0xbea8a297	-0.32936546
77	0xbeb2fa48	-0.34956574
78	0xbee47478	-0.4462011
79	0xbebcfa2b	-0.36909613

conv1.bias f4 [16]
0	0x3e87a926	0.26496238
1	0x3e9d3035	0.30700842
2	0xbe0a5e1a	-0.1351246
3	0x3a6446a9	0.0008708039
4	0xbbfeda40	-0.0077774823
5	0xbeae659d	-0.340619
6	0xbb96fd87	-0.0046078595
7	0xbdeced3f	-0.115686886
8	0xbe9eb016	-0.30993718
9	0xbed731aa	-0.42030078
10	0x3e4bdc3a	0.19908229
11	0x3dd51725	0.10404805
12	0x3e014725	0.12624796
13	0xbe84288e	-0.2581219
14	0xbea19eb1	-0.31566384
15	0xbece8b1b	-0.40340504

conv2.weight f4 [1, 16, 5]
0	0xbe011d24	-0.12608773
1	0x3c924b91	0.017858298
2	0x3d14c036	0.03631612
3	0x3db5a811	0.08869947
4	0x3e2851d3	0.16437463
5	0x3d472ef9	0.04862878
6	0x3cc0a3b7	0.023515565
7	0x3e1cab2c	0.15299672
8	0x3e313da5	0.17308672
9	0x3e35a9fa	0.17740622
10	0x3da8de43	0.08245518
11	0x3e00c182	0.12573817
12	0xbd3ae20d	-0.045625735
13	0xbcd14326	-0.025544714
14	0xbdde1059	-0.10842962
15	0xbc1509a9	-0.009096541
16	0xbd570f0f	-0.052504595
17	0xbc79b944	-0.015241925
18	0x3deb8039	0.11499066
19	0x3c873122	0.01650292
20	0xb93b6200	-0.00017870218
21	0xbdbbf06f	-0.091767184
22	0xbdcdedbf	-0.10055112
23	0xbdc612b8	-0.09671539
24	0x3ca94a30	0.020665258
25	0xbdc3526a	-0.095372036
26	0xbdbc4863	-0.09193494
27	0xbd92e5cc	-0.071727365
28	0x3d6779c0	0.056512594
29	0xbd01aea6	-0.0316607
30	0x3dcbb643	0.09946873
31	0xbd684d3e	-0.05671429
32	0xbc6ab1f7	-0.014324657
33	0xbd7aeafe	-0.061259262
34	0x3ccdfaea	0.02514406
35	0x3bea46dd	0.007149561
36	0x39881415	0.00025954904
37	0xbdbeb887	-0.093125395
38	0xbd64441d	-0.05572902
39	0xbc8a2dae	-0.016867485
40	0x3d2a4558	0.041570038
41	0xbc7af900	-0.015318155
42	0x3db6d08e	0.089264974
43	0xbd9be15f	-0.076113455
44	0xbd820dc6	-0.06350283
45	0x3dd41136	0.10354845
46	0xbdc6a7e8	-0.09699994
47	0x3d0d3834	0.034477428
48	0x3dac6a82	0.08418752
49	0xbd87d800	-0.066329956
50	0xbe6c153b	-0.23054974
51	0xbc1b8864	-0.009492967
52	0x3d359779	0.04433391
53	0x3dd9baac	0.10631308
54	0x3e3c3413	0.1837924
55	0xbe2e34c5	-0.17012317
56	0xbd91cb75	-0.071188845
57	0xbe1f3986	-0.15549287
58	0xbe0dd8b1	-0.13852192
59	0xbe25e348	-0.16199982
60	0x3d33e368	0.043918043
61	0xbd3560ed	-0.04428189
62	0x3d06cc1e	0.032909505
63	0xbd811864	-0.0630348
64	0xbc012b9c	-0.007883932
65	0x3de7911c	0.11306974
66	0xbe2ad54a	-0.16682926
67	0xbdcfc713	-0.10145392
68	0xbe564c9c	-0.20927662
69	0xbd89d19e	-0.067294344
70	0xbd4e892f	-0.050423797
71	0x3d36be18	0.04461488
72	0x3cbc5bf0	0.022993058
73	0xbdcb5806	-0.099288985
74	0x3d11161c	0.035421476
75	0xbdd30c12	-0.103050366
76	0xbcaede2c	-0.021346174
77	0xbd89b4f0	-0.06723964
78	0x3cfea4e0	0.031084478
79	0xbdbca4cd	-0.09211121

fc1.weight f4 [64, 42]
0	0xbcff98a0	-0.031200707
1	0x3d8c73d6	0.068580315
2	0xbe5e1a32	-0.2168968
3	0xbd7a2626	-0.061071537
4	0xbe754ca6	-0.2395502
5	0xbdc9a3cd	-0.09845696
6	0xbe84952e	-0.25895065
7	0xbe3fce3f	-0.1873102
8	0xbe65946c	-0.224199
9	0xbe2d1f81	-0.16906549
10	0xbe12244a	-0.14271656
11	0x3d0fa988	0.035073787
12	0xbd40132d	-0.046893287
13	0x3d404c07	0.046947505
14	0x3e20698d	0.15665264
15	0x3d592ebe	0.053023092
16	0x3cdf13a0	0.027231038
17	0x3d64d0f4	0.055863336
18	0x3e549f84	0.20763975
19	0x3e86a3f0	0.2629695
20	0x3e319f4a	0.1734592
21	0x3d81ecb5	0.063439764
22	0x3c8011f1	0.015633555
23	0x3dde3567	0.108500294
24	0xbd7d2417	-0.061801996
25	0x3e182519	0.14857902
26	0x3dccc37b	0.099982224
27	0xbda31b7d	-0.07964227
28	0xbdf23fe0	-0.118285894
29	0xbe186e61	-0.14885856
30	0xbe887f50	-0.26659632
31	0xbe278d66	-0.16362533
32	0xbdc97dd1	-0.09838451
33	0xbe9e3f5d	-0.30907717
34	0xbe48c47c	-0.19606203
35	0xbd07a3ab	-0.03311507
36	0x3d079c8c	0.03310828
37	0x3ce35096	0.027748387
38	0xbd1c45e3	-0.038152587
39	0x3bbefd96	0.0058285696
40	0x3d757c71	0.05993313
41	0x3d54a04c	0.051910684
42	0xbdcbdaee	-0.09953867
43	0xbc20a289	-0.009804376
44	0xbe34c047	-0.17651473
45	0x3cceb5d1	0.025233181
46	0xbe2260ed	-0.15857287
47	0xbe0c2cc2	-0.13688949
48	0x3ca765dd	0.020434314
49	0xbcd80cc6	-0.026373278
50	0xbd96c13d	-0.07361076
51	0x3ca02920	0.01955086
52	0x3cb7ccd6	0.02243654
53	0xbd5454c9	-0.05183867
54	0xbd646350	-0.055758774
55	0xbcf01f5c	-0.029311828
56	0x3dea56da	0.11442347
57	0xbd265a95	-0.04061373
58	0xbcb2ab6e	-0.02181026
59	0x3d9f5e9d	0.07781718
60	0x3e486611	0.19570185
61	0x3e4cd553	0.20003252
62	0xbdabbf4d	-0.08386097
63	0x3d85e37f	0.06537532
64	0x3babffda	0.0052490057
65	0x3dab8ada	0.08376093
66	0x3e248873	0.16067676
67	0x3df577c2	0.119857326
68	0x3c32352b	0.010876934
69	0xbdf75996	-0.12077634
70	0xbe117d18	-0.14207876
71	0xbd9f4868	-0.07777482
72	0xbd9ce4d1	-0.07660831
73	0xbdd19e3e	-0.102352604
74	0xbe573c7e	-0.2101917
75	0xbe8115a4	-0.25211823
76	0xbcdb60c4	-0.02677954
77	0xbd026adb	-0.031840187
78	0xbd037b36	-0.032099925
79	0xbe08fbde	-0.1337733
80	0xbc60d541	-0.013722719
81	0x3c730f7f	0.0148352375
82	0x3e290ebc	0.16509527
83	0x3d01c3e9	0.031680975
84	0x3d5c1f3d	0.05374073
85	0x3c236de0	0.009974927
86	0x3bcbe4ee	0.006222359
87	0xbde9a061	-0.11407543
88	0x3c24f1c8	0.010067411
89	0xbe2201d8	-0.15821016
90	0xbe553681	-0.20821573
91	0xbd98a4f9	-0.07453341
92	0xbd6692c6	-0.056292318
93	0xbe4533cc	-0.1925804
94	0xbe64d84d	-0.22348137
95	0xbe3ad73c	-0.18246168
96	0xbe08ea6d	-0.13370676
97	0xbcbe12d0	-0.02320233
98	0xbe1cf28f	-0.15326904
99	0x3d726d7d	0.059186447
100	0x3dd22535	0.10261003
101	0x3d61e48b	0.055149596
102	0x3e1c8655	0.15285619
103	0x3d30b1d9	0.04313836
104	0x3c2449f1	0.010027395
105	0x3d549fd0	0.05191022
106	0x3d927cdc	0.07152721
107	0x3d921167	0.071322255
108	0x3dab0251	0.08350051
109	0x3d153cd1	0.036434952
110	0xbd0c4157	-0.034242
111	0xbdb4f27f	-0.08835315
112	0xbe315934	-0.17319185
113	0xbe0c5622	-0.13704732
114	0xbd99e6a4	-0.07514694
115	0xbdfdcf24	-0.123930246
116	0xbbbba134	-0.005726004
117	0xbe88c335	-0.2671143
118	0x3c8d07f7	0.017215712
119	0xbe803b58	-0.25045276
120	0x3d0bcabc	0.03412889
121	0xbdd5beb6	-0.10436766
122	0xbe50a783	-0.203764
123	0xbe22580b	-0.15853898
124	0xbd9fa749	-0.07795579
125	0x3d830ac4	0.06398538
126	0x3e093020	0.13397264
127	0x3d59432a	0.05304257
128	0xbde6089c	-0.11232111
129	0xbe226cba	-0.15861788
130	0xbd102309	-0.035189662
131	0x3e0a11b0	0.1348331
132	0x3dd1a52d	0.10236583
133	0xbc94603c	-0.018112294
134	0x38cbdc8f	9.7208766e-05
135	0x3b0a0050	0.0021057315
136	0xbdc349cb	-0.09535559
137	0x3d9688f8	0.073503435
138	0xbdba1eca	-0.09087904
139	0xbdcc4005	-0.09973148
140	0xbcc26828	-0.023731306
141	0xbe18e8c6	-0.14932546
142	0xbdf6e6de	-0.12055753
143	0xbd00b186	-0.0314193
144	0x3de4bb0e	0.1116849
145	0xbe1073c1	-0.14106657
146	0x3e17d6d7	0.14828049
147	0x3da53230	0.08066213
148	0x3d0b0a2c	0.033945248
149	0xbd2ce704	-0.0422125
150	0x3c261880	0.010137677
151	0x3d583570	0.052785337
152	0xbd15ed5c	-0.036603317
153	0xbda5803b	-0.08081099
154	0xbe05eb3a	-0.13078013
155	0xbcf9a777	-0.030475361
156	0xbe19140e	-0.14949057
157	0x3dc28ab6	0.09499113
158	0xbe1e040a	-0.15431228
159	0x3c020822	0.007936509
160	0xbc920136	-0.017822843
161	0x3dd5c7de	0.10438512
162	0xbd39e864	-0.04538764
163	0xbde01311	-0.10941137
164	0x3d3b56f6	0.04573723
165	0x3cfc1f05	0.03077651
166	0x3cb9e262	0.022690956
167	0xbdabcc9e	-0.08388637
168	0x3bbe2f0a	0.0058039473
169	0x3e0d890a	0.13821808
170	0x3e3c2d29	0.18376602
171	0x3e53f289	0.20697989
172	0x3dc6f3ab	0.09714445
173	0x3d3b0bf9	0.045665715
174	0x3dca0133	0.0986351
175	0x3dd3bd69	0.103388615
176	0xbd24d83e	-0.040245287
177	0x3d03fdad	0.032224346
178	0x3d683182	0.05668784
179	0x3cb2184b	0.0217401
180	0xbe5a1d25	-0.2130018
181	0xbe51b90b	-0.20480745
182	0xbe664e87	-0.22490893
183	0xbeb3dd9f	-0.3513002
184	0xbe0e289d	-0.1388268
185	0xbe679519	-0.2261547
186	0xbea26c6d	-0.31723347
187	0xbe690a5d	-0.2275786
188	0xbef8216c	-0.48463
189	0xbefb9554	-0.49137366
190	0xbe612df3	-0.21990184
191	0x3bbed4ab	0.005823692
192	0x3d849e9c	0.06475565
193	0x3d981f01	0.074277885
194	0xbd9cda80	-0.07658863
195	0xbd470b4d	-0.04859476
196	0xbd239ea5	-0.039946217
197	0xbd68aa25	-0.056802887
198	0x3e12f405	0.14350899
199	0x3deb7fab	0.1149896
200	0x3e3a15d3	0.18172388
201	0x3e43c796	0.19119105
202	0x3db28939	0.087175794
203	0x3d8d2460	0.068917036
204	0xbdab9ecc	-0.083798975
205	0x3ae26765	0.0017273246
206	0xbc6c8bbf	-0.014437615
207	0xbe31399f	-0.17307137
208	0xbc1b3a83	-0.0094743995
209	0xbe3a1090	-0.1817038
210	0xbe6b72c0	-0.22992992
211	0xbd70f146	-0.058823846
212	0xbdc7953f	-0.09745263
213	0xbdbaa3fd	-0.091133095
214	0xbdc38f82	-0.09548856
215	0x3cca28bd	0.024677629
216	0xbe72853e	-0.2368364
217	0xbe3ee3a2	-0.18641523
218	0xbd0b5b3b	-0.03402255
219	0xbc87f695	-0.016597072
220	0xbe4f0b63	-0.20219187
221	0xbd6500d1	-0.05590898
222	0xbe06bba2	-0.13157514
223	0xbe32caf7	-0.17460237
224	0xbcdbb910	-0.026821643
225	0x3be8ccc2	0.007104487
226	0xbd17aadc	-0.03702818
227	0xbe21db1b	-0.15806238
228	0xbdbb7f85	-0.09155182
229	0x3d9d36aa	0.07676442
230	0xbd44e416	-0.048069082
231	0x3da27836	0.07933085
232	0x3c11a6f4	0.008889902
233	0xbe1674e7	-0.14693032
234	0xbda589f6	-0.080829546
235	0xbde302b3	-0.11084499
236	0xbe3b90af	-0.18316911
237	0xbd7e149d	-0.062031377
238	0xbe4d5b25	-0.200543
239	0xbe83fefe	-0.2578048
240	0x3cbdf0e4	0.023186155
241	0xbddf590e	-0.10905658
242	0xbcd69952	-0.026196156
243	0xbe9b8700	-0.30376434
244	0xbe5e806b	-0.21728675
245	0xbe36a516	-0.17836413
246	0xbe356514	-0.1771434
247	0xbe5de80a	-0.21670547
248	0xbe1e47d9	-0.15457095
249	0xbe9c91be	-0.30579942
250	0xbee24eba	-0.4420069
251	0xbe88c5cb	-0.26713404
252	0x3d6bfab2	0.05761213
253	0x3db67163	0.089083456
254	0xbda43fcd	-0.080199815
255	0xbe3a2a92	-0.18180302

fc1.bias f4 [64]
0	0x3e930050	0.28711176
1	0x3e24a38c	0.16078013
2	0xbb0534b7	-0.002032561
3	0xbce1f105	-0.027580747
4	0x3e43db19	0.19126548
5	0x3e0c8100	0.13721085
6	0xbdf2eb30	-0.11861265
7	0x3ea794c2	0.3273068
8	0x3e36efab	0.17864864
9	0x3e1a28ee	0.15054676
10	0xbdc1d3d2	-0.0946423
11	0xbc1b3a95	-0.009474416
12	0x3dc63cb0	0.09679544
13	0xbc6686ed	-0.014070255
14	0x3e8b76f4	0.27239192
15	0xbe0bfd36	-0.13670811
16	0xbc3ef137	-0.01165419
17	0xbd08e911	-0.033425394
18	0x3e0dc628	0.13845122
19	0x3e9b505b	0.30334744
20	0x3e8624c3	0.26199922
21	0x3ea13ac5	0.3149015
22	0x3e13bf7a	0.14428511
23	0xbd164c1b	-0.036693674
24	0xbe07e63e	-0.13271424
25	0xbcc5bc54	-0.024137653
26	0xbde75ba6	-0.112967774
27	0xbdee7ca6	-0.116448686
28	0xbc499f3b	-0.01230603
29	0x3e23c679	0.1599368
30	0xbdd309fa	-0.10304637
31	0xbd6ac09c	-0.057312593
32	0xbd5e0746	-0.054206155
33	0x3e27f9e8	0.16403925
34	0xbdbc708d	-0.09201155
35	0xbe152247	-0.14563857
36	0xbd841938	-0.064501226
37	0xbd9a2ce6	-0.07528095
38	0x3d874ddc	0.06606647
39	0xbb6a4433	-0.0035746216
40	0x3e0ec55a	0.13942471
41	0xbdb3c801	-0.08778382
42	0x3d96694b	0.07344302
43	0xbae86848	-0.0017731274
44	0xbe2e8696	-0.17043528
45	0xbb74f2b8	-0.0037376117
46	0xbe08c018	-0.13354528
47	0xbd096a0c	-0.0335484
48	0x3e493693	0.19649725
49	0x3e27afe3	0.16375689
50	0x3e75efd0	0.24017262
51	0xbe1d6acc	-0.15372771
52	0xbdf3a524	-0.118967324
53	0xbe24d58a	-0.16097084
54	0xbdcef51b	-0.10105344
55	0x3e50909c	0.20367664
56	0x3e8bd21e	0.27308744
57	0x3d7d126b	0.061785143
58	0xbdebdb7e	-0.11516474
59	0xbe1e544d	-0.15461846
60	0xbd0206ed	-0.031744886
61	0xbe0fc5e0	-0.14040327
62	0xbd32a64c	-0.043615624
63	0xbd800ab1	-0.06252039

fc2.weight f4 [8, 64]
0	0xbe648a22	-0.22318318
1	0xbe0f4a83	-0.13993268
2	0xbd95193a	-0.07280202
3	0x3d4eddcb	0.050504487
4	0x3d1329f3	0.035928678
5	0x3dc530ab	0.09628423
6	0x3e0b83a5	0.13624437
7	0xbdd791a7	-0.10525828
8	0x3d39692f	0.045266327
9	0x3dad47ea	0.08460982
10	0x3caa2ab6	0.02077232
11	0xbc93060c	-0.01794722
12	0xbdb56e5d	-0.08858941
13	0xbd2d93b5	-0.042377193
14	0xbe862693	-0.26201305
15	0xbd5fef94	-0.05467184
16	0xbd92b0e2	-0.07162644
17	0xbda9f7e2	-0.08299233
18	0x3e695919	0.22787894
19	0xbe9f96a1	-0.31169608
20	0xbce3aed8	-0.027793333
21	0xbe69ac80	-0.2281971
22	0xbe998117	-0.299813
23	0xbcb3545a	-0.021890808
24	0xbdaac09a	-0.08337517
25	0xbd0dde38	-0.034635752
26	0xbd804ef9	-0.06265063
27	0xbcc6a188	-0.024246946
28	0xbcb60f8e	-0.022224214
29	0x3e08c5fd	0.13356777
30	0xbdc2ba0e	-0.09508143
31	0x3dd38006	0.10327153
32	0x3d66f68e	0.056387477
33	0xbd0190d6	-0.031632267
34	0xbe162d27	-0.14665662
35	0xbdb14acc	-0.086568445
36	0xbd3a9670	-0.045553625
37	0xbd987a46	-0.07445197
38	0xbd4bf71b	-0.049796205
39	0xbbd60064	-0.0065308083
40	0x3d30a2fa	0.043124177
41	0xbd8e9e4e	-0.06963788
42	0xbe92f661	-0.28703597
43	0xbdc4ee1a	-0.09615727
44	0x3d839c36	0.06426279
45	0x3c7c3ad9	0.01539489
46	0xbdadce95	-0.08486668
47	0x3d209a72	0.03920979
48	0x3cfbc445	0.030733237
49	0x3e6f1b44	0.23350245
50	0xbd278f57	-0.040908184
51	0x3c0af670	0.008481607
52	0x3dfa76ca	0.122296885
53	0xbd8e9ab6	-0.069631025
54	0x3c29b790	0.010358706
55	0x3e40198d	0.18759747
56	0xbe416a48	-0.188882
57	0xbc428c49	-0.011874267
58	0x3dce4ae6	0.100728795
59	0x3d3a9a7b	0.04555748
60	0x3d2e4ef5	0.042555768
61	0x3d6f8588	0.058476955
62	0x3d76198c	0.060082957
63	0xbdd9374e	-0.10606252
64	0x3bc7bfa8	0.0060958453
65	0x3d7dcfe7	0.06196585
66	0xbd66b3ea	-0.056323923
67	0xbd1ffdd9	-0.039060447
68	0x3e13d249	0.14435686
69	0x3e538d8b	0.20659463
70	0xbdd23a38	-0.102650106
71	0xbdbc6c28	-0.09200317
72	0x3e8de771	0.27715638
73	0x3eb33c72	0.35007054
74	0xbc9bc81f	-0.019016324
75	0xbd61a43d	-0.05508827
76	0xbc7d4f89	-0.015460857
77	0x3d0c7f8a	0.03430132
78	0x3dbbfac3	0.091786884
79	0x3d32d930	0.043664157
80	0x3d07eb26	0.03318324
81	0x3e0e1b7a	0.13877669
82	0x3e4d78e0	0.20065641
83	0xbce11955	-0.0274779
84	0x3e5c05c4	0.21486574
85	0x3dd58b5b	0.104269706
86	0x3d424516	0.047429167
87	0x3d75f525	0.06004824
88	0xbd87f5d8	-0.06638688
89	0xbdac7a08	-0.08421713
90	0x3d0a29f8	0.03373143
91	0x3d538f60	0.051650405
92	0x3e027797	0.12740932
93	0x3dcc194d	0.09965763
94	0x3de61ba4	0.11235741
95	0xbdec3a86	-0.115346
96	0xbc415be4	-0.011801694
97	0x3d952337	0.07282107
98	0x3d815958	0.06315869
99	0xbbf21880	-0.0073881745
100	0xbd3c7440	-0.046009302
101	0xbdba3916	-0.090929195
102	0xbdea9102	-0.11453439
103	0xbba62874	-0.0050707404
104	0x3d1702a5	0.036867756
105	0x3dd219be	0.10258816
106	0xbdb6b637	-0.089214735
107	0x3d87f7ac	0.066390365
108	0xbda45c70	-0.080254436
109	0xbcbecc7a	-0.023290861
110	0x3df7631f	0.12079453
111	0x3d54221f	0.051790353
112	0x3eac23d8	0.33621097
113	0x3e56a2ae	0.20960495
114	0xbca928a0	-0.020649254
115	0xbd972148	-0.07379395
116	0xbc198640	-0.009370387
117	0xbda50d21	-0.08059145
118	0xbdcdefbb	-0.100554906
119	0x3e6adecc	0.22936553
120	0x3d213dc1	0.039365534
121	0x3e02d771	0.12777497
122	0x3dc7cdbe	0.09756039
123	0xbdb99f6f	-0.09063613
124	0xbd7271d5	-0.05919059
125	0xbdbb43a9	-0.091437645
126	0x3dccf256	0.100071594
127	0x3d48af88	0.048995525
128	0xbcae5cf8	-0.021284565
129	0x3d4665ef	0.048437055
130	0x3dd674c4	0.1047149
131	0x3da3624d	0.07977734
132	0x3d0700bc	0.032959685
133	0x3d25e0b3	0.040497493
134	0x3c4699e1	0.0121216485
135	0xbe6a700f	-0.2289431
136	0x3dfac5d4	0.12244764
137	0x3e0c984d	0.13729973
138	0xbd37b597	-0.044850912
139	0xbc97c799	-0.018527793
140	0xbc665693	-0.014058727
141	0x3db380fd	0.08764837
142	0xbe2d8dc1	-0.16948606
143	0x3d5ef8fc	0.05443667
144	0x3d94ff6c	0.0727528
145	0x3d85f29e	0.06540416
146	0x3e58b487	0.21162616
147	0xbe58b4e0	-0.21162748
148	0x3e383bac	0.17991513
149	0xbe551fa2	-0.20812848
150	0xbdc16423	-0.09442928
151	0x3a9b11ec	0.0011830903
152	0x3dd9af88	0.10629183
153	0x3bbbecdf	0.0057350243
154	0xbde36b47	-0.11104446
155	0x3b423700	0.0029634833
156	0x3d977c38	0.0739674
157	0x3d959ff9	0.07305903
158	0xbd393b94	-0.045222834
159	0xbceb65ca	-0.02873506
160	0x3db4bca4	0.08825043
161	0xbe001818	-0.12509191
162	0xbd4b14d0	-0.049580395
163	0x3d36d04c	0.04463224
164	0x3cc3d5e8	0.02390571
165	0xbdf38202	-0.118900314
166	0xbd2aae15	-0.041669924
167	0xbd952170	-0.07281768
168	0xbc7dc684	-0.015489224
169	0x3c293464	0.010327432
170	0xbedbecd1	-0.42954114
171	0xbd739700	-0.059470177
172	0x3d5e312b	0.05424611
173	0xbd924b5e	-0.071432814
174	0xbd962596	-0.07331388
175	0xbda237a2	-0.07920767
176	0x3e986580	0.29764938
177	0x3e95ec4f	0.29281852
178	0xbdc23cb8	-0.094842374
179	0xbe0e90ba	-0.13922396
180	0xbcd85730	-0.026408762
181	0x3d545236	0.051836215
182	0x3de246f6	0.11048691
183	0x3e11abbc	0.14225668
184	0xbe6b18ad	-0.22958632
185	0x3e489ea8	0.19591773
186	0x3d90dbc0	0.07073164
187	0x3d60e8ff	0.054909702
188	0x3d666159	0.05624518
189	0x3d685e1c	0.056730375
190	0xbdb505c8	-0.08838993
191	0x3d92bd30	0.07164991
192	0xbe5a0424	-0.21290642
193	0xbda2d26d	-0.07950292
194	0x3dac4123	0.08410861
195	0xbd4ed155	-0.050492603
196	0x3e311460	0.17292929
197	0x3b2d5874	0.0026450427
198	0x3d8c2122	0.06842257
199	0xbe3dff7c	-0.18554491
200	0x3d6d55bf	0.057943102
201	0x3d983fb4	0.074340254
202	0xbd0085e5	-0.03137769
203	0xbdab940b	-0.08377846
204	0x3cc7c101	0.024384024
205	0x3d45598f	0.048181113
206	0xbe861c2e	-0.26193374
207	0x3dc7970e	0.09745608
208	0x3cc10d0d	0.023565793
209	0xbd50a160	-0.05093515
210	0xbd4b44d8	-0.0496262
211	0xbeae5375	-0.34048048
212	0x3dd92fe9	0.10604841
213	0xbe1dac1c	-0.15397686
214	0xbe6199eb	-0.22031371
215	0xbd9c6cf4	-0.07637969
216	0x3ded0d0c	0.11574754
217	0x3dc62e88	0.09676844
218	0x3d2d1061	0.04225195
219	0xbd724168	-0.059144408
220	0xbdae1533	-0.08500137
221	0x3da0c8f3	0.07850828
222	0x3d5e21e0	0.054231524
223	0x3d129a19	0.03579149
224	0xbcf66c88	-0.030081049
225	0xbd3ec8c2	-0.046578176
226	0x3d48ca03	0.04902078
227	0x3ca5f928	0.020260409
228	0x3dd3f0be	0.10348652
229	0x3d7c3854	0.061577156
230	0x3d447f67	0.047973063
231	0x3cc8b354	0.024499573
232	0xbdf8b184	-0.121432334
233	0xbdbffa58	-0.09373921
234	0xbe8cda70	-0.27510405
235	0x3da5f5d3	0.08103528
236	0xbda729e2	-0.081622854
237	0xbdb64cd0	-0.089013696
238	0x3d6e508b	0.05818228
239	0x3e0336f7	0.12813936
240	0xbd970b5e	-0.07375215
241	0x3dec99d5	0.11552779
242	0xbd45b1de	-0.04826533
243	0x3d40f123	0.047104966
244	0xbd1aae94	-0.037764147
245	0xbd37f774	-0.044913724
246	0x3dedf25a	0.116184905
247	0x3b27873d	0.0025562786
248	0xbe699d81	-0.22813989
249	0x3dc78818	0.09742755
250	0x3d094878	0.033516377
251	0x3be96275	0.0071223327
252	0xbce716e1	-0.028209152
253	0x3d80624c	0.06268749
254	0xbcb94e08	-0.022620216
255	0xbd6bb0dc	-0.057541713

fc2.bias f4 [8]
0	0x3df5af36	0.119963095
1	0x3d0621c2	0.032747038
2	0xbd003bc8	-0.03130701
3	0x3d8e4544	0.06946805
4	0x3d918f36	0.071073934
5	0xbe0885c5	-0.13332279
6	0x3e249249	0.16071428
7	0xbd70fe40	-0.05883622

fc3.weight f4 [2, 8]
0	0x3da22ad7	0.07918327
1	0x3e084696	0.13308176
2	0x3e150631	0.14553143
3	0xbe067139	-0.13129129
4	0xbdab02b5	-0.08350126
5	0xbea17d44	-0.31540883
6	0x3e6d9121	0.23199894
7	0xbe2b59f8	-0.16733539
8	0xbe294c49	-0.16533007
9	0xbd38adee	-0.045087747
10	0xbe2b07e2	-0.16702226
11	0xbe97875e	-0.29595464
12	0xbdf73041	-0.120697506
13	0x3e8e4a75	0.2779118
14	0xbe29dc34	-0.16587907
15	0xbe572fbb	-0.21014301

fc3.bias f4 [2]
0	0x3def96f8	0.11698717
1	0xbec00342	-0.37502486

qnn.weight f4 [4]
0	0xbeaabaad	-0.33345547
1	0x3f44f45c	0.7693536
2	0x3eaf894c	0.34284437
3	0xbf1e2518	-0.6177535

qnn._weights f4 [4]
0	0xbeaabaad	-0.33345547
1	0x3f44f45c	0.7693536
2	0x3eaf894c	0.34284437
3	0xbf1e2518	-0.6177535
